saved_models/adult_model_early_stopping.pt (torch, 17695 bytes, 3 tensors)

weight f4 [35, 105]
0.0014186099 -0.091738 0.16784333 0.27877396 0.10704343 -0.07143965 0.032333046 -0.025888488
-0.056870207 0.026903618 -0.02286177 0.097859375 0.014002219 0.074681096 0.108329944 0.065396324
-0.0707974 -0.047995284 0.010641445 -0.0648272 -0.07762885 -0.01717881 -0.062411796 0.032370817
-0.00919518 0.01000896 -0.05041702 -0.08301246 0.06710102 -0.053094476 0.058906686 -0.017205376
-0.0439309 -0.12021978 0.050659243 -0.017274912 -0.035293784 -0.06890388 -0.086627305 -0.02224456
0.03146359 -0.043524384 -0.0041403403 -0.1291038 0.025471065 -0.089394115 0.042365078 0.0041275527
-0.002136211 -0.08190909 -0.05099699 -0.09572288 0.09099126 -0.08624954 -0.08518748 0.054217692
0.10390018 0.0018696173 -0.08909446 0.06646757 -0.100393586 0.078084216 0.021672973 -0.041266777
-0.07972667 0.091527514 0.021517709 0.054111034 0.053572237 -0.090830155 -0.010106375 -0.025486741
-0.0063756225 0.10617446 -0.08744017 -0.01775395 -0.0801607 0.060581926 0.088084094 0.045012817
-0.06511474 0.09535811 -0.017445812 -0.0874084 -0.061876174 0.05422478 -0.04813235 -0.032826316
-0.040642135 -0.017651245 -0.03680241 -0.060790338 -0.035399202 0.07925145 0.07412723 0.023143273
0.06122126 -0.0096198395 0.017139995 0.06959922 0.07436227 0.06368398 0.007939055 -0.07263869
0.04907724 -0.83190244 0.010403129 -0.06872479 -0.09577542 -0.018117256 -0.194073 0.035201352
0.020398702 0.09431138 0.005368928 -0.014864015 -0.25401723 0.1403132 0.08250024 0.07574028
-0.04131674 -0.106994316 0.07836267 -0.01976888 0.09781667 -0.02403855 0.11415924 0.18911725
-0.11483676 0.09896593 0.10699347 0.053906444 0.114331394 -0.008480688 0.116565205 0.12126115
-0.025125237 -0.20718704 0.09299542 0.22531964 0.078620255 -0.064974986 -0.0103171 0.058316633
-0.029516121 0.09713749 0.13278143 0.06488494 -0.034833375 0.092049114 0.07826448 -0.0023369922
-0.07657132 -0.12512983 0.008818059 0.03944217 0.10063149 0.03162764 0.029947234 0.20135431
0.18204303 -0.32463488 -0.047886405 -0.024288371 0.093078904 0.099640206 0.06036537 0.0009321288
0.11270066 -0.06114803 0.0136946505 0.014588941 0.052541077 0.029805444 -0.039043833 -0.047701184
0.1398381 0.0010273096 -0.10109928 0.035999093 -0.06710487 -0.039448477 0.073501594 -0.00029733582
0.01939373 0.044549547 -0.02128623 -0.020960905 -0.023665642 0.03393983 0.09933204 -0.078801125
0.037135705 -0.012486985 0.019081382 0.06497571 0.016218556 -0.055807855 -0.027212964 -0.04031522
0.090507686 -0.022152953 0.030694615 0.08315621 -0.0107052885 0.0506283 0.035699785 0.036461726
0.02390796 0.03180873 0.06620871 0.06111148 -0.05931312 0.002584723 -0.0348039 -0.120319255
0.09149565 -0.011992155 0.03584938 0.019311234 0.02209272 -0.039317563 -0.052851226 -0.0584934
0.02406854 -0.014634827 -0.06942127 0.06789142 -0.07882577 0.09217754 0.08908267 -0.010246675
-0.0221678 0.0696533 0.011335306 0.09589379 0.04425719 -0.0063418024 -0.055312205 0.03662571
-0.03698318 -0.014891455 -0.091815196 0.056982033 -0.022008616 0.07331846 0.041143037 -0.054939028
-0.05889767 -0.06067162 0.03625354 -0.076824486 -0.08248592 0.050090104 0.0050507523 0.002361654
00000000: a6f0 b93a 22e1 bbbd 1fdf 2b3e 76bb 8e3e
00000010: 9639 db3d f44e 92bd a86f 043d 1814 d4bc
00000020: bcf0 68bd fa64 dc3c 9b48 bbbc 7f6a c83d
00000030: 9069 653c 67f2 983d 17dc dd3d 82ee 853d
00000040: 3afe 90bd b496 44bd 7559 2e3c 1fc4 84bd
00000050: e0fb 9ebd 93ba 8cbc 83a3 7fbd 4397 043d
00000060: 61a7 16bc 9ffc 233c 1482 4ebd 7002 aabd
00000070: 426c 893d 9879 59bd 2348 713d 4af2 8cbc
00000080: e3f0 33bd ca35 f6bd 1180 4f3d 1e84 8dbc
00000090: 3790 10bd 7a1d 8dbd a869 b1bd 393a b6bc
000000a0: f7df 003d a046 32bd b1ab 87bb c933 04be
000000b0: b2a8 d03c 4314 b7bd 0187 2d3d 6c40 873b
000000c0: acff 0bbb f4bf a7bd 38e2 50bd 5b0a c4bd
000000d0: a059 ba3d 99a3 b0bd c676 aebd 5f13 5e3d
000000e0: 9ec9 d43d f20d f53a 2877 b6bd 2620 883d
000000f0: 279b cdbd 9eea 9f3d 858b b13c 5a07 29bd
00000100: bd47 a3bd c772 bb3d e845 b03c 88a3 5d3d
00000110: 906e 5b3d 2905 babd 3695 25bc 92c9 d0bc
00000120: 99ea d0bb ff71 d93d d513 b3bd bb70 91bc
00000130: 4b2b a4bd c124 783d 6f65 b43d 5c5f 383d
00000140: e05a 85bd 1d4b c33d 85ea 8ebc 2d03 b3bd
00000150: df71 7dbd ce1a 5e3d 6d26 45bd e374 06bd
00000160: 5e78 26bd 5899 90bc 20be 16bd 4aff 78bd
00000170: c1fe 10bd 964e a23d 04d0 973d f696 bd3c
00000180: 25c3 7a3d 889c 1dbc 2d69 8c3c 098a 8e3d
00000190: 3f4b 983d bf6c 823d cf12 023c 98c3 94bd
000001a0: 3705 493d 8ff7 54bf e371 2a3c 95bf 8cbd
000001b0: e725 c4bd a46a 94bc 13bb 46be 4b2f 103d
000001c0: 2e1b a73c 5326 c13d d5ed af3b 3388 73bc
000001d0: 8c0e 82be 43ae 0f3e e3f5 a83d b81d 9b3d
000001e0: be3b 29bd d61f dbbd 9c7c a03d 59f2 a1bc
000001f0: 1b54 c83d 7eec c4bc 52cc e93d f4a7 413e
00000200: 892f ebbd a6ae ca3d 641f db3d 01cd 5c3d
00000210: 9426 ea3d 95f2 0abc bdb9 ee3d c457 f83d
00000220: 71d3 cdbc d728 54be 6274 be3d 31ba 663e
00000230: a803 a13d 9b11 85bd 0e09 29bc 6cdd 6e3d
00000240: cbcb f1bc 05f0 c63d dbf7 073e 65e2 843d
00000250: 71ad 0ebd 3f84 bc3d 2149 a03d 3928 19bb
00000260: 6dd1 9cbd 0922 00be 9f79 103c 1d8e 213d
00000270: e217 ce3d fc8b 013d e753 f53c d32f 4e3e
00000280: 7d69 3a3e 8b36 a6be 8924 44bd 68f8 c6bc
00000290: 27a0 be3d 2a10 cc3d ae41 773d 1b5a 743a
000002a0: 9bcf e63d 5b76 7abd 875f 603c 7406 6f3c
000002b0: 5035 573d 8c2a f43c 6dec 1fbd 5162 43bd
000002c0: b831 0f3e caa6 863a 240d cfbd c973 133d
000002d0: 476e 89bd ba94 21bd 0188 963d bde3 9bb9
000002e0: 9adf 9e3c 9679 363d 7660 aebc 34b6 abbc
000002f0: 73de c1bc 7e04 0b3d 996e cb3d 7c62 a1bd
00000300: 9c1b 183d 3696 4cbc 8f50 9c3c fc11 853d
00000310: c7dc 843c c796 64bd b9ed debc 9221 25bd
00000320: 185c b93d 1c7a b5bc 4673 fb3c ce4d aa3d
00000330: 3c65 2fbc 9f5f 4f3d f039 123d e458 153d
00000340: a0da c33c df49 023d 6f98 873d 0850 7a3d
00000350: 50f2 72bd 7564 293b 898e 0ebd f169 f6bd
00000360: 1262 bb3d be7a 44bc cdd6 123d 9832 9e3c
00000370: cbfb b43c 740b 21bd 877a 58bd c796 6fbd
00000380: 632b c53c eac6 6fbc bd2c 8ebd a80a 8b3d
00000390: 686f a1bd 94c7 bc3d fa70 b63d ace1 27bc
000003a0: 3f99 b5bc 64a6 8e3d b8b7 393c f763 c43d
000003b0: 0747 353d e5ce cfbb 0d8f 62bd d704 163d
000003c0: ad7b 17bd 4afb 73bc 9b09 bcbd fe65 693d
000003d0: 6a4b b4bc fd27 963d 9a85 283d bf07 61bd
000003e0: af3e 71bd ce82 78bd 987e 143d 2856 9dbd
000003f0: 61ee a8bd 482b 4d3d c880 a53b fbc5 1a3b

bias f4 [35]
0.039499655 0.19204886 -0.08493154 0.042979337 0.114046596 0.01580868 0.1293069 0.048847705
0.07876012 0.13314389 -0.03685195 -0.042909246 -0.031973097 -0.008303666 0.114135 0.02199331
-0.020967297 -0.06672317 0.088681765 0.12591244 0.01656829 0.034308195 -0.054198 -0.038184844
-0.07243201 -0.0061062793 -0.06077379 0.05878999 -0.0007668639 0.36080492 0.009431107 -0.11414235
-0.031702913 0.02690752 0.18954132
00000000: 64ca 213d 75a8 443e 96f0 adbd 1a0b 303d
00000010: 4391 e93d 3481 813c 0769 043e 8814 483d
00000020: fc4c a13d df56 083e 12f2 16bd 9bc1 2fbd
00000030: 39f6 02bd 190c 08bc 9cbf e93d 502b b43c
00000040: 9cc3 abbc 28a6 88bd c99e b53d 31ef 003e
00000050: 39ba 873c c086 0c3d b9fe 5dbd b667 1cbd
00000060: 3c57 94bd 2f17 c8bb f0ed 78bd c6cd 703d
00000070: 5d07 49ba 6cbb b83e ee84 1a3c 77c3 e9bd
00000080: eada 01bd 296d dc3c 1f17 423e

weight f4 [1, 35]
0.4339376 -1.1164823 -0.10385924 0.12944674 -0.47617894 0.10895932 0.8359255 0.058916755
-0.07736284 -1.1971824 -0.11856958 -0.05788413 -0.39878476 -0.107406735 -0.49295595 -0.44687805
0.1341756 0.37718838 0.24458393 -0.7688961 -0.053368 0.37414846 0.06332405 -0.1414513
-0.035193924 -0.3066285 0.8883021 0.45386118 0.07623219 -1.0054723 0.04171479 0.12001487
0.48112974 0.1326121 -0.88727444
00000000: 122d de3e e4e8 8ebf 27b4 d4bd b08d 043e
00000010: bacd f3be 1026 df3d 37ff 553f b252 713d
00000020: 6970 9ebd 463d 99bf 9cd4 f2bd e917 6dbd
00000030: 842d ccbe 10f8 dbbd b964 fcbe 33cd e4be
00000040: 5465 093e d61e c13e 3674 7a3e 60d6 44bf
00000050: 6798 5abd 6390 bf3e 0ab0 813d 9cd8 10be
00000060: 8127 10bd 69fe 9cbe c467 633f 7e60 e83e
00000070: 9f1f 9c3d 51b3 80bf 21dd 2a3d 5bca f53d
00000080: a356 f63e 77cb 073e 6b24 63bf
