saved_models/hep_model_lr_scheduler.pt (torch, 5983 bytes, 3 tensors)

weight f4 [25, 31]
0.027869014 -0.014588388 0.12006952 0.0025998289 0.10968445 0.16492632 0.04718772 -0.08718059
0.06826673 0.027054502 -0.17488989 0.02231307 -0.0016166378 0.12072314 -0.05498073 -0.13606216
-0.0484492 -0.023423005 0.12937246 -0.16419618 -0.044544447 -0.07336331 0.15301093 0.021276243
-0.122242086 -0.065961145 0.07600195 -0.14393465 0.037448023 0.074786186 0.0034287428 0.18275587
-4.3828357e-05 -0.19203025 -0.123074375 -0.10447111 -0.13671213 0.07706813 0.22579134 0.1240194
0.13037999 0.11408894 0.039453097 -0.007280862 0.15213698 0.033501197 0.15805723 0.014468812
-0.015329769 -0.12770244 -0.076672114 0.10352317 -0.081402496 -0.0862251 0.10729984 -0.08912986
0.079483464 -0.07635405 0.084112406 -0.14947231 0.17147183 -0.12917486 -0.21274969 -0.046689913
-0.13267091 0.111108236 0.1158038 -0.023846537 -0.100871824 -0.08669257 0.15146847 -0.16718745
0.23351647 -0.029144786 0.13809411 0.1893153 0.08116412 0.18827277 0.1291812 -0.08199866
-0.028214829 -0.05047775 0.047304258 0.11859588 -0.09121758 0.11418903 -0.0784171 -0.15626408
0.009416741 -0.12710209 0.08917654 0.10920587 0.029950771 0.19003572 0.14987314 -0.21077205
0.11344614 -0.111754246 -0.13439704 -0.010699261 0.11809328 -0.1094595 0.1809774 0.043831117
0.08828366 0.10422212 0.0027325004 0.14510943 0.002861824 -0.010308275 0.0974195 0.04094971
-0.16820773 -0.13331686 -0.17346969 0.060960755 0.026277578 -0.14027531 0.17045256 -0.17962714
0.14933164 0.14305025 0.060976952 -0.080239736 -0.1476845 -0.16940725 -0.002953485 0.1610957
0.19968502 0.16430764 0.08799078 0.023874097 -0.095043436 0.039026063 0.19068596 -0.024984526
-0.12756619 -0.0447498 0.10154764 0.08441106 0.120966576 0.030004727 -0.04952305 0.08532059
0.09411902 -0.14750639 -0.12886468 0.01860542 -0.1031994 0.1456613 -0.0084046675 -0.1580878
0.028789112 0.015314365 -0.095498465 -0.031106643 0.18776456 -0.11104553 0.2499724 0.022556258
-0.10227235 0.08603899 -0.10866012 0.09642074 0.1930429 -0.027604189 -0.062549114 0.08048999
0.073162645 -0.16826418 0.20582348 -0.23169255 -0.1746677 0.13065845 -0.19136858 -0.028297167
-0.13307978 0.062078744 0.10124221 0.014221978 0.063393265 -0.0797706 0.20000519 -0.085037254
-0.11170721 0.066886924 0.1307496 0.12684008 0.015894117 0.07091766 -0.16472673 -0.009111336
0.021415085 0.19235733 -0.13752435 0.18335915 -0.13716443 0.12631734 0.07589324 0.17306003
0.14149804 0.08959931 -0.15057693 -0.08635918 0.16134147 -0.20605646 -0.044067662 0.05732788
0.019750817 -0.035329185 -0.0129352035 0.094404094 -0.164499 0.15418336 -0.07931877 0.18594754
-0.020158272 -0.043909796 -0.286293 0.014372985 0.060581673 0.042787716 0.0015041323 -0.035178326
0.02671685 -0.018540379 -0.17140752 0.2872851 0.047807314 -0.056576643 0.10260905 0.032236516
0.08962451 0.2128358 0.14083464 0.12043217 -0.042368773 0.15483792 0.16278459 0.14663193
-0.022604974 0.045204446 0.013675654 -0.06258662 0.08750424 0.114370786 -0.11164209 0.24545452
0.03023042 -0.076033354 0.14292794 -0.11219264 -0.0066620237 0.11481506 0.08377487 0.12872478
00000000: 8f4d e43c 2204 6fbc 02e7 f53d e461 2a3b
00000010: 3ea2 e03d 72e2 283e e947 413d bd8b b2bd
00000020: 6dcf 8b3d 67a1 dd3c 5616 33be e6c9 b63c
00000030: 5de5 d3ba b23d f73d 7933 61bd e153 0bbe
00000040: ab72 46bd 9ae1 bfbc 377a 043e 0b23 28be
00000050: 3d74 36bd 813f 96bd e6ae 1c3e 844b ae3c
00000060: 0f5a fabd a316 87bd e9a6 9b3d 9b63 13be
00000070: 1963 193d 8029 993d c2b4 603b 5b24 3b3e
00000080: 57d4 37b8 94a3 44be 6b0e fcbd f3f4 d5bd
00000090: 44fe 0bbe e5d5 9d3d d835 673e e2fd fd3d
000000a0: 5582 053e 76a7 e93d 9299 213d 4c94 eebb
000000b0: ccc9 1b3e 8d38 093d c1d9 213e 990e 6d3c
000000c0: b629 7bbc 6ec4 02be 4506 9dbd f503 d43d
000000d0: 5ab6 a6bd c996 b0bd 05c0 db3d b789 b6bd
000000e0: 3ac8 a23d 835f 9cbd 2043 ac3d 450f 19be
000000f0: 5096 2f3e 6a46 04be 0edb 59be ec3d 3fbd
00000100: e2da 07be b78c e33d 8b2a ed3d d059 c3bc
00000110: e395 cebd e08b b1bd 8d1a 1b3e 3033 2bbe
00000120: f11e 6f3e 0cc1 eebc 8b68 0d3e dfdb 413e
00000130: 6039 a63d 94ca 403e 1448 043e eaee a7bd
00000140: c922 e7bc c2c1 4ebd 1cc2 413d 66e2 f23d
00000150: 48d0 babd f0db e93d 2599 a0bd b103 20be
00000160: ad48 1a3c 0d27 02be 31a2 b63d 54a7 df3d
00000170: 525b f53c b998 423e 5878 193e a1d4 57be
00000180: 7356 e83d 69df e4bd 619f 09be f44b 2fbc
00000190: e4da f13d 4d2c e0bd 2452 393e 4288 333d
000001a0: 10ce b43d 6872 d53d c013 333b 9197 143e
000001b0: 708d 3b3b 0ae4 28bc e083 c73d e2ba 273d
000001c0: a63e 2cbe 3784 08be 0aa2 31be fcb1 793d
000001d0: 1344 d73c 55a4 0fbe 1e8b 2e3e 2df0 37be
000001e0: 65ea 183e c47b 123e f8c2 793d bb54 a4bd
000001f0: 9b3a 17be 1879 2dbe 418f 41bb 45f6 243e
00000200: 3b7a 4c3e 4340 283e 8334 b43d 9c93 c33c
00000210: 22a6 c2bd cbd9 1f3d 2e43 433e 59ac ccbc
00000220: b6a0 02be 914b 37bd 36f8 cf3d b5df ac3d
00000230: 53bd f73d 79cc f53c afd8 4abd 90bc ae3d
00000240: 79c1 c03d ea0b 17be 1af5 03be 656a 983c
00000250: 355a d3bd 3c28 153e bbb3 09bc c5e1 21be
00000260: 25d7 eb3c 1ae9 7a3c b394 c3bd 5cd3 febc
00000270: 5a45 403e d76b e3bd c4f8 7f3e e7c7 b83c
00000280: 2a74 d1bd 3635 b03d 3289 debd 3d78 c53d
00000290: 0aad 453e 2e22 e2bc c019 80bd f0d7 a43d
000002a0: 4cd6 953d 724d 2cbe 64c3 523e d040 6dbe
000002b0: 17dc 32be 54cb 053e 20f6 43be 76cf e7bc
000002c0: 1146 08be 4846 7e3d 1358 cf3d 4d03 693c
000002d0: 54d4 813d c55e a3bd 29ce 4c3e 0328 aebd
000002e0: c0c6 e4bd 03fc 883d 39e3 053e 5ee2 013e
000002f0: 6134 823c 473d 913d 20ae 28be b747 15bc
00000300: b06e af3c 52f9 443e 2fd3 0cbe 80c2 3b3e
00000310: d574 0cbe 5559 013e ea6d 9b3d a636 313e
00000320: dde4 103e d87f b73d d730 1abe 15dd b0bd
00000330: b336 253e 7700 53be 4b80 34bd a4d0 6a3d
00000340: 77cc a13c 56b5 10bd 2dee 53bc ef56 c13d
00000350: 6d72 28be 3ee2 1d3e e171 a2bd 0869 3e3e
00000360: f622 a5bc c2da 33bd ff94 92be ab7c 6b3c
00000370: 7d24 783d 2c42 2f3d 4e26 c53a 2617 10bd
00000380: 4cdd da3c fee1 97bc 7485 2fbe 0817 933e
00000390: 9ad1 433d e9bc 67bd b224 d23d 700a 043d
000003a0: 0e8d b73d a1f1 593e f536 103e 24a5 f63d
000003b0: e18a 2dbd d58d 1e3e 01b1 263e ae26 163e
000003c0: 112e b9bc 4c28 393d da0f 603c 6a2d 80bd
000003d0: 6c35 b33d 3b3b ea3d 9ca4 e4bd 6e58 7b3e
000003e0: c9a5 f73c 60b7 9bbd b45b 123e 41c5 e5bd
000003f0: 1b4d dabb 2824 eb3d 2992 ab3d 6ed0 033e

bias f4 [25]
-0.11497853 0.013988936 -0.04755762 -0.018400656 0.13265866 0.12908034 0.17506257 0.17153119
0.1176378 0.1350997 -0.1250795 0.037580986 0.14258741 0.03931706 -0.062306 -0.114292584
-0.18339771 -0.10873817 -0.17883258 0.06615746 0.10464915 -0.049094517 0.22555384 0.13045466
0.056091562
00000000: dd79 ebbd da31 653c c7cb 42bd f9bc 96bc
00000010: acd7 073e a32d 043e 9a43 333e dfa5 2f3e
00000020: 16ec f03d 9357 0a3e d714 00be 85ee 193d
00000030: 6f02 123e ed0a 213d 9434 7fbd 3b12 eabd
00000040: 9ccc 3bbe 1eb2 debd e31f 37be 907d 873d
00000050: 4b52 d63d 5517 49bd 96f7 663e e895 053e
00000060: 44c0 653d

weight f4 [1, 25]
-0.009539228 -0.3632262 0.31258583 -0.4371044 0.17906149 -0.4076605 -0.4594549 0.42544064
-0.053877667 0.34378466 -0.35116825 -0.08256782 -0.11742024 -0.10887442 -0.1046178 0.17979635
-0.013998374 -0.096107766 0.12306471 -0.11535148 0.28089753 0.4629944 0.5007224 0.2994056
0.006980263
00000000: 6c4a 1cbc c9f8 b9be 400b a03e 26cc dfbe
00000010: e55b 373e e1b8 d0be ac3d ebbe 5bd3 d93e
00000020: d4ae 5cbd 8b04 b03e 53cc b3be 5119 a9bd
00000030: 067a f0bd 8df9 debd db41 d6bd 891c 383e
00000040: 7059 65bc 26d4 c4bd 5a09 fc3d 663d ecbd
00000050: cdd1 8f3e 9a0d ed3e 582f 003f b14b 993e
00000060: b1ba e43b
